…
\tx916\tx1832\tx2748\tx3664\tx4580\tx5496\tx6412\tx7328\tx8244\tx9160\tx10076\tx10992\tx11908\tx12824\tx13740\tx14656\wrapdefault\aspalpha\aspnum\faauto\adjustright\rin0\lin0\itap0\pararsid1452045 \cbpat8 \rtlch\fcs1 \af31507\afs22\alang1025 \ltrch\fcs0 
\fs22\lang16393\langfe16393\loch\af31506\hich\af31506\dbch\af31505\cgrid\langnp16393\langfenp16393 {\rtlch\fcs1 \af2\afs20 \ltrch\fcs0 \f2\fs20\cf19\insrsid1452045\charrsid1452045 Model: "sequential_2"
\par _________________________________________________________________
\par Layer (type)                 Output Shape              Param #   
\par =================================================================
\par conv2d_3 (Conv2D)            (None, 32, 32, 32)        896       
\par _________________________________________________________________
\par dropout_3 (Dropout)          (None, 32, 32, 32)        0         
\par _________________________________________________________________
\par conv2d_4 (Conv2D)            (None, 32, 32, 32)        9248      
\par _________________________________________________________________
\par max_pooling2d_2 (MaxPooling2 (None, 16, 16, 32)        0         
\par _________________________________________________________________
\par flatten_2 (Flatten)          (None, 8192)              0         
\par _________________________________________________________________
\par dense_3 (Dense)              (None, 512)               4194816   
\par _________________________________________________________________
\par dropout_4 (Dropout)          (None, 512)               0         
\par _________________________________________________________________
\par dense_4 (Dense)              (None, 10)                5130      
\par =================================================================
\par Total params: 4,210,090
\par Trainable params: 4,210,090
\par Non-trainable params: 0
\par _________________________________________________________________
\par None
\par Train on 50000 samples, validate on 10000 samples
\par Epoch 1/25
\par 50000/50000 [==============================] - 10s 205us/step - loss: 1.7110 - accuracy: 0.3787 - val_loss: 1.3545 - val_accuracy: 0.5142
…
