…
\par Downloading data from }{\field\fldedit{\*\fldinst {\rtlch\fcs1 \af2\afs20 \ltrch\fcs0 \f2\fs20\cf19\insrsid9531717\charrsid9531717  HYPERLINK "https://www.cs.toronto.edu/~kriz/cifar-10-python.tar.gz" \\t "_blank" }}{\fldrslt {\rtlch\fcs1 \af2\afs20 
\ltrch\fcs0 \f2\fs20\ul\cf2\insrsid9531717\charrsid9531717 https://www.cs.toronto.edu/~kriz/cifar-10-python.tar.gz}}}\sectd \ltrsect\linex0\sectdefaultcl\sftnbj {\rtlch\fcs1 \af2\afs20 \ltrch\fcs0 \f2\fs20\cf19\insrsid9531717\charrsid9531717 
\par 170500096/170498071 [==============================] - 6s 0us/step
\par Model: "sequential_1"
\par _________________________________________________________________
\par Layer (type)                 Output Shape              Param #   
\par =================================================================
\par conv2d_1 (Conv2D)            (None, 32, 32, 32)        896       
\par _________________________________________________________________
\par dropout_1 (Dropout)          (None, 32, 32, 32)        0         
\par _________________________________________________________________
\par conv2d_2 (Conv2D)            (None, 32, 32, 32)        9248      
\par _________________________________________________________________
\par max_pooling2d_1 (MaxPooling2 (None, 16, 16, 32)        0         
\par _________________________________________________________________
\par conv2d_3 (Conv2D)            (None, 16, 16, 64)        18496     
\par _________________________________________________________________
\par dropout_2 (Dropout)          (None, 16, 16, 64)        0         
\par _________________________________________________________________
\par conv2d_4 (Conv2D)            (None, 16, 16, 64)        36928     
\par _________________________________________________________________
\par max_pooling2d_2 (MaxPooling2 (None, 8, 8, 64)          0         
\par _________________________________________________________________
\par conv2d_5 (Conv2D)            (None, 8, 8, 128)         73856     
\par _________________________________________________________________
\par dropout_3 (Dropout)          (None, 8, 8, 128)         0         
\par _________________________________________________________________
\par conv2d_6 (Conv2D)            (None, 8, 8, 128)         147584    
\par _________________________________________________________________
\par max_pooling2d_3 (MaxPooling2 (None, 4, 4, 128)         0         
\par _________________________________________________________________
\par flatten_1 (Flatten)          (None, 2048)              0         
\par _________________________________________________________________
\par dropout_4 (Dropout)          (None, 2048)              0         
\par _________________________________________________________________
\par dense_1 (Dense)              (None, 1024)              2098176   
\par _________________________________________________________________
\par dropout_5 (Dropout)          (None, 1024)              0         
\par _________________________________________________________________
\par dense_2 (Dense)              (None, 512)               524800    
\par _________________________________________________________________
\par dropout_6 (Dropout)          (None, 512)               0         
\par _________________________________________________________________
\par dense_3 (Dense)              (None, 512)               262656    
\par _________________________________________________________________
\par dropout_7 (Dropout)          (None, 512)               0         
\par _________________________________________________________________
\par dense_4 (Dense)              (None, 10)                5130      
\par =================================================================
\par Total params: 3,177,770
\par Trainable params: 3,177,770
\par Non-trainable params: 0
\par _________________________________________________________________
\par None
\par Train on 50000 samples, validate on 10000 samples
\par Epoch 1/25
\par 50000/50000 [==============================] - 40s 790us/step - loss: 1.9596 - accuracy: 0.2677 - val_loss: 1.5632 - val_accuracy: 0.4211
…
